mnist_model.pth (torch, 942615 bytes, 6 tensors)

model.1.weight f4 [256, 784]
0.03413205 0.042837046 0.036107477 0.0038681587 0.032489747 0.0063615437 0.0108025195 -0.019955564
-0.004754553 0.0023652748 -0.019588867 -0.001632545 0.037518166 0.024753392 0.024741556 -0.020711582
0.025687492 -0.009799686 0.014341081 0.04429244 -0.00222287 0.03929394 0.024101987 0.028881824
0.024774022 0.045728147 -0.018629458 0.026231764 0.024220256 0.039109785 0.028227242 -0.014092793
0.03154836 -0.021068418 0.031388845 0.046051476 -0.018434174 0.00069274334 0.033833474 0.031737786
0.051745303 0.0024907517 0.020912362 -0.010165165 0.028655438 -0.020600736 0.03035552 0.024027908
0.0045421375 0.0074930494 0.006999164 0.0038176344 -0.0059398604 0.013614281 0.008833111 0.035308857
0.0024200282 -0.01454561 -0.012896956 0.023754785 0.04077557 0.028113378 -0.0017423659 -0.019927328
-0.006011377 0.030365808 0.0050590783 0.05700212 0.022217412 0.11907393 0.0810576 0.12105404
0.1407131 0.09136003 0.072717376 0.07510865 0.00057041243 -0.015655678 0.015763303 -0.023383733
0.0054544574 0.03491837 0.031229828 0.031600196 0.028814232 0.04421809 -0.004987989 0.0011517325
0.012680187 -0.013804492 0.02156903 -0.018374825 -0.039992988 0.00064254407 -0.061129536 -0.1329864
0.0048882086 0.19899748 0.175785 0.21906573 0.15120332 0.030425156 0.041115396 0.024932781
0.015232646 -0.057613246 -0.03367515 -0.04752052 -0.0241478 0.003688122 0.013369571 -0.011657042
0.0063284305 0.035664603 0.024229856 0.01260912 0.018249894 -0.022591544 0.01374761 -0.035541914
-0.0036632507 0.06547709 -0.019852532 -0.04059513 0.10285608 0.088659085 0.030891204 0.11176645
0.09845785 0.016114593 0.047879234 0.040433154 0.05107621 -0.025167676 -0.0013820011 -0.0037009409
-0.048439715 -0.010383259 -0.0014697732 -0.019310834 0.039766245 0.023428265 0.014129378 0.020209944
-0.009249865 0.011605281 -0.051382415 -0.03938096 -0.009706526 0.054727055 0.03698755 0.026915938
0.016793082 0.015872698 0.041141797 0.031934354 0.058553055 0.030460462 0.056656662 0.033955213
0.031691488 0.11362758 0.112198114 0.09249305 0.0071973717 0.015774569 0.015045592 0.039905876
-0.025086453 0.015433922 0.032933168 0.010613449 -0.01585796 -0.034247022 -0.04205935 -0.05196561
0.041127574 -0.03699114 0.01597944 0.1017229 0.11454422 0.06408071 0.0034951256 -0.020202233
0.056911193 0.07951085 0.04883889 0.17363489 0.11199251 0.12741213 0.064676605 0.058432322
0.063274 0.043423403 0.042779516 -0.018620852 -0.014333973 0.046294607 0.015921677 -0.058946658
-0.060579512 -0.057848565 -0.017814184 -0.00805418 -0.06434425 0.10429672 0.031092413 0.09677786
0.09163271 0.08574038 0.05252518 0.026256917 0.12982734 0.14995913 0.1341322 0.1474277
0.09183175 0.044850886 -0.013515054 -0.07804234 0.024858382 0.04220986 0.050847054 0.045910403
0.021454476 -0.005564911 0.008378827 -0.0044632405 -0.11447302 -0.058492374 -0.021177487 -0.09742075
0.001394446 0.011149177 0.0014466009 0.11548873 0.16241573 0.0026999365 -0.096504934 -0.13022493
-0.022982003 0.009661608 0.008531441 -0.0034670937 -0.07547357 -0.098901354 -0.08223887 -0.09170823
0.026214508 -0.009898532 0.0058470843 0.027751226 -0.015261791 -0.023887476 0.014556514 -0.044420302
00000000: 0cce 0b3d e675 2f3d 6fe5 133d ef80 7d3b
00000010: f813 053d 7f74 d03b 0dfd 303c da79 a3bc
00000020: 15cc 9bbb ba02 1b3b d578 a0bc 1ffb d5ba
00000030: a6ac 193d a0c7 ca3c ceae ca3c 56ab a9bc
00000040: 936e d23c dd8e 20bc daf6 6a3c fd6b 353d
00000050: 92ad 11bb aff2 203d 8871 c53c 9399 ec3c
00000060: e4f2 ca3c 704d 3b3d ce9c 98bc ffe3 d63c
00000070: 8f69 c63c 9531 203d d13c e73c 75e5 66bc
00000080: da38 013d ad97 acbc 9791 003d 79a0 3c3d
00000090: 4403 97bc 3899 353a f894 0a3d 7bff 013d
000000a0: e2f2 533d e13b 233b 6750 ab3c cb8b 26bc
000000b0: cfbe ea3c e0c2 a8bc 24ac f83c 2dd6 c43c
000000c0: 36d6 943b 4188 f53b 3e59 e53b 4731 7a3b
000000d0: 29a3 c2bb 6f0e 5f3c c1b8 103c 05a0 103d
000000e0: 5699 1e3b b650 6ebc c14d 53bc 6599 c23c
000000f0: 4904 273d 074e e63c 1960 e4ba a33e a3bc
00000100: 16fb c4bb b7c1 f83c a0c6 a53b 0e7b 693d
00000110: 4a01 b63c 08dd f33d 8701 a63d 2eeb f73d
00000120: 1817 103e f81a bb3d d9ec 943d 90d2 993d
00000130: bb87 153a 5640 80bc 0b22 813c 3e8f bfbc
00000140: 4ebb b23b 9106 0f3d b2d5 ff3c 356f 013d
00000150: d30b ec3c 071e 353d 4972 a3bb bbf5 963a
00000160: 8fc0 4f3c 3c2c 62bc 89b1 b03c cd86 96bc
00000170: b0cf 23bd 6770 283a f762 7abd 962d 08be
00000180: 442d a03b ffc5 4b3e fc00 343e c452 603e
00000190: 0bd5 1a3e 2d3e f93c 9e68 283d d53f cc3c
000001a0: 5992 793c defb 6bbd f4ee 09bd e0a4 42bd
000001b0: 9bd1 c5bc 6bb4 713b 0c0c 5b3c 2efd 3ebc
000001c0: b95e cf3b 0c15 123d b17d c63c 7c96 4e3c
000001d0: cd80 953c e711 b9bc a83d 613c 6694 11bd
000001e0: 2613 70bb da18 863d c7a1 a2bc 1447 26bd
000001f0: 35a6 d23d e592 b53d 8d0f fd3c cfe5 e43d
00000200: 45a4 c93d c002 843c 041d 443d 3c9d 253d
00000210: 4a35 513d 712c cebc 4324 b5ba 7c8b 72bb
00000220: b968 46bd 8b1e 2abc 68a5 c0ba c131 9ebc
00000230: eee1 223d a2ec bf3c e87e 673c 538f a53c
00000240: bf8c 17bc 1424 3e3c 5e76 52bd ee4d 21bd
00000250: 1f08 1fbc 7a29 603d 4280 173d d07e dc3c
00000260: a591 893c 7607 823c 4d84 283d 99cd 023d
00000270: 54d5 6f3d 3888 f93c d110 683d 9f14 0b3d
00000280: efce 013d 94b5 e83d 20c8 e53d ff6c bd3d
00000290: eed7 eb3b ab39 813c c981 763c 5874 233d
000002a0: 1b82 cdbc 90de 7c3c eee4 063d 08e4 2d3c
000002b0: 8de8 81bc 9b46 0cbd 6d46 2cbd e4d9 54bd
000002c0: 6375 283d 0684 17bd 51e7 823c 1954 d03d
000002d0: 2996 ea3d bf3c 833d 7a0e 653b 277f a5bc
000002e0: b61b 693d 96d6 a23d 4a0b 483d 58cd 313e
000002f0: 545c e53d 5378 023e 2b75 843d bb56 6f3d
00000300: cd95 813d bddc 313d 9339 2f3d c28a 98bc
00000310: 0ad9 6abc 6a9f 3d3d 2d6e 823c 0d72 71bd
00000320: 3922 78bd 9ef2 6cbd 0def 91bc aef5 03bc
00000330: ebc6 83bd 8599 d53d 84b5 fe3c 7833 c63d
00000340: eea9 bb3d a798 af3d a524 573d bf18 d73c
00000350: 75f1 043e e38e 193e f459 093e 49f7 163e
00000360: 4912 bc3d 90b5 373d 3f6e 5dbc aad4 9fbd
00000370: cea3 cb3c 3fe4 2c3d 0045 503d 8c0c 3c3d
00000380: 4cc1 af3c db59 b6bb 5947 093c 6040 92bb
00000390: d570 eabd b395 6fbd 697c adbc 8884 c7bd
000003a0: d8c5 b63a 0aab 363c df9b bd3a 5b85 ec3d
000003b0: 4f50 263e 6bf1 303b 61a4 c5bd af59 05be
000003c0: c144 bcbc b94b 1e3c 75c7 0b3c 2e38 63bb
000003d0: e391 9abd cb8c cabd da6c a8bd 86d1 bbbd
000003e0: cfbf d63c 742d 22bc e698 bf3b 8a56 e33c
000003f0: 970c 7abc abaf c3bc 727e 6e3c 10f2 35bd

model.1.bias f4 [256]
0.00662972 -0.06081857 -0.044682954 -0.0559136 -0.018429661 -0.05777992 -0.03650109 -0.07408706
-0.06944101 -0.036215656 -0.060142312 -0.018634237 -0.029200783 -0.063288234 -0.001968616 -0.0063407086
-0.03959781 -0.05126953 0.015767738 -0.038451668 -0.0035446882 0.024515947 0.024545552 -0.035185996
-0.045361448 -0.038458727 -0.014859759 -0.060224842 -0.023585595 -0.07870982 -0.020632513 0.030683713
-0.026559146 -0.010344022 0.010201057 -0.070419766 -0.035117943 -0.033084717 0.009111336 -0.032673012
-0.06043714 -0.061071053 -0.034591224 -0.061064355 0.010984685 -0.0071419794 -0.0560575 -0.068930656
-0.019405717 -0.03924674 0.0035083138 -0.012747955 0.015316101 0.0238894 0.034890004 -0.010552724
-0.04736528 0.015103033 0.008419686 -0.04633584 -0.004664831 -0.057401996 -0.010710144 -0.06919684
0.010354034 -0.03631833 -0.03470292 -0.04640118 -0.024936782 -0.021156833 -0.039799616 -0.025275514
-0.06569517 -0.014226617 -0.029355315 -0.013121709 -0.018638879 0.018311683 -0.0069554704 -0.04225536
-0.011644546 0.012332463 -0.023572112 -0.030505879 -0.055172466 0.0016104473 -0.05511078 0.0063650887
-0.039742716 -0.06522289 -0.012389076 0.01665955 -0.02664972 -0.05261824 -0.0035998088 -0.06088628
-0.0008952166 -0.009425882 -0.022567503 0.019275337 0.01636202 0.0137759745 -0.0114566 -0.026590694
0.008575285 -0.0056446297 0.011227927 -0.060165208 -0.05896651 -0.046255838 -0.022567602 -0.039895374
-0.0084818285 -0.033579156 -0.029148953 -0.050387356 -0.043347448 -0.015522896 -0.017435916 -0.025547676
-0.017712584 -0.00987042 0.00533695 -0.062227413 -0.028559795 -0.017781157 -0.020206414 -0.027115183
-0.0022895774 -0.05028715 -0.0064859353 -0.003259168 -0.03354637 -0.05134442 -0.051836494 -0.03740255
-0.050488126 0.023964394 -0.046806507 -0.0044348994 0.0016750497 -0.035017956 -0.012887976 -0.022287698
-0.021843491 -0.010402752 -0.0021462447 0.006340562 -0.019811584 -0.020042013 -0.034719165 -0.0076199565
-0.015945915 -0.07105154 0.014993699 -0.046078917 0.012580162 0.0044908007 -0.020657675 -0.02966257
0.013163399 -0.009467781 -0.035986207 -0.016748983 -0.027443135 -0.006887276 -0.036109067 -0.016301181
0.028727492 -0.04720413 0.00631539 0.0005785396 -0.049048517 -0.005680876 -0.0028796617 -0.002822906
-0.02092162 -0.034997955 -0.02951003 -0.011926524 0.0072163227 -0.045406602 -0.048746914 -0.0176827
-0.018765116 -0.03049904 -0.051326454 -0.044370145 -0.021081725 -0.015487586 0.005521924 0.016170615
-0.034118425 -0.024998713 0.0056196228 0.008483297 0.0007795602 -0.007069263 -0.024257006 -0.058253504
-0.0894921 -0.049057554 -0.029238494 -0.04402824 -0.03310323 -0.026114458 0.0037946831 -0.06668003
-0.022673048 -0.0075492994 -0.025919368 -0.06376309 -0.01869229 -0.011776969 -0.041187283 -0.0072313007
-0.049138993 -0.0010333111 -0.023252707 0.027025886 -0.054619357 -0.050381985 0.004276978 -0.024762174
0.023002485 0.014373591 -0.03812799 -0.032563414 -0.043569162 -0.06504609 0.00052280363 -0.029571243
-0.04390993 -0.052304998 -0.010629899 -0.016897153 0.0026099405 0.017036863 -0.008603692 0.037284207
-0.03404895 -0.055109814 -0.061757877 -0.012722982 0.027384635 -0.021150231 -0.007389761 -0.002356352
-0.03603393 -0.047580697 -0.028000211 -0.037211392 0.0067163925 0.005774787 -0.061990198 -0.0659501
00000000: 1f3e d93b e51c 79bd 7905 37bd a905 65bd
00000010: cdf9 96bc a3aa 6cbd 2b82 15bd f5ba 97bd
00000020: 1737 8ebd de56 14bd c957 76bd d4a6 98bc
00000030: 7b36 efbc 439d 81bd e503 01bb b8c5 cfbb
00000040: 5031 22bd 0000 52bd 582b 813c 7f7f 1dbd
00000050: 004e 68bb abd5 c83c c113 c93c 311f 10bd
00000060: edcc 39bd e686 1dbd 5976 73bc 53ae 76bd
00000070: 9436 c1bc 9d32 a1bd 8405 a9bc 695c fb3c
00000080: 9192 d9bc f979 29bc 5622 273c 3d38 90bd
00000090: d5d7 0fbd d783 07bd b747 153c 23d4 05bd
000000a0: ef8c 77bd a425 7abd 87af 0dbd 9e1e 7abd
000000b0: 1cf9 333c 4407 eabb 8d9c 65bd 842b 8dbd
000000c0: bdf8 9ebc 31c1 20bd bdeb 653b ccdc 50bc
000000d0: 62f0 7a3c b4b3 c33c d2e8 0e3d 55e5 2cbc
000000e0: 1902 42bd b672 773c b9f2 093c a6ca 3dbd
000000f0: 70db 98bb 5b1e 6bbd 9a79 2fbc 13b7 8dbd
00000100: f7a3 293c 87c2 14bd a624 0ebd 2a0f 3ebd
00000110: 3948 ccbc 1851 adbc ec04 23bd 980e cfbc
00000120: 308b 86bd c216 69bc 8f7a f0bc 70fc 56bc
00000130: 90b0 98bc 6202 963c b7ea e3bb f513 2dbd
00000140: c4c8 3ebc 190e 4a3c 4d1a c1bc 77e7 f9bc
00000150: 86fc 61bd a515 d33a d7bb 61bd 3c92 d03b
00000160: 42c9 22bd 9493 85bd 8dfb 4abc 9c79 883c
00000170: 8350 dabc 3986 57bd c5ea 6bbb e463 79bd
00000180: f8ac 6aba 046f 1abc 7cdf b8bc 50e7 9d3c
00000190: a509 863c a0b4 613c 77b4 3bbc bad4 d9bc
000001a0: 5a7f 0c3c 96f6 b8bb 57f5 373c cb6f 76bd
000001b0: de86 71bd c376 3dbd b1df b8bc 5569 23bd
000001c0: 5ef7 0abc 4c8a 09bd c9c9 eebc f962 4ebd
000001d0: 188d 31bd bf53 7ebc c4d5 8ebc 5c49 d1bc
000001e0: fb19 91bc 8bb7 21bc 95e1 ae3b 2ce2 7ebd
000001f0: 3bf6 e9bc caa9 91bc ec87 a5bc a920 debc
00000200: bc0c 16bb e6f9 4dbd f887 d4bb c497 55bb
00000210: eb67 09bd 874e 52bd 8152 54bd 6b33 19bd
00000220: a3cc 4ebd fa50 c43c 2eb8 3fbd a252 91bb
00000230: 578d db3a fd6e 0fbd 1728 53bc b194 b6bc
00000240: 1ff1 b2bc 4e70 2abc 03a8 0cbb 7dc4 cf3b
00000250: e74b a2bc 262f a4bc af35 0ebd d4b0 f9bb
00000260: 02a1 82bc 7883 91bd 22a8 753c 3fbd 3cbd
00000270: 061d 4e3c 9127 933b 493a a9bc ebfe f2bc
00000280: 4cab 573c c01e 1bbc 4666 13bd 2a35 89bc
00000290: 6dd0 e0bc a9ae e1bb 1ae7 13bd 0e8a 85bc
000002a0: eb55 eb3c 1e59 41bd 55f1 ce3b 23a9 173a
000002b0: 19e7 48bd a426 babb b5b8 3cbb 8100 39bb
000002c0: d163 abbc 045a 0fbd 05bf f1bc 7867 43bc
000002d0: e776 ec3b 46fc 39bd d8aa 47bd 4fdb 90bc
000002e0: 4db9 99bc 1fd9 f9bc b03b 52bd 78bd 35bd
000002f0: 95b3 acbc a5bf 7dbc 41f1 b43b 3d78 843c
00000300: c3bf 0bbd 1aca ccbc d024 b83b 87fd 0a3c
00000310: 665b 4c3a 47a5 e7bb a1b6 c6bc 3a9b 6ebd
00000320: a247 b7bd 93f0 48bd 9185 efbc f556 34bd
00000330: 4197 07bd fded d5bc 38b0 783b 8a8f 88bd
00000340: d4bc b9bc 1d60 f7bb db54 d4bc 3996 82bd
00000350: 9320 99bc 30f4 40bc ffb3 28bd 8cf4 ecbb
00000360: f845 49bd 2b70 87ba 767c bebc 6465 dd3c
00000370: 8cb8 5fbd 575d 4ebd e425 8c3b 0bda cabc
00000380: b56f bc3c 367f 6b3c 182c 1cbd 3761 05bd
00000390: 9475 32bd e236 85bd c20c 093a 643f f2bc
000003a0: e6da 33bd c43d 56bd 0729 2ebc e66b 8abc
000003b0: 890b 2b3b e490 8b3c 80f6 0cbc 53b7 183d
000003c0: e976 0bbd d4ba 61bd d4f5 7cbd 0e74 50bc
000003d0: be55 e03c 4043 adbc cf25 f2bb 076d 1abb
000003e0: 5098 13bd fae3 42bd b360 e5bc f96a 18bd
000003f0: 2f15 dc3b 6d3a bd3b 6fe9 7dbd d910 87bd

model.4.weight f4 [128, 256]
0.06497638 -0.037002586 0.06389695 -0.097702734 0.114080414 -0.0918908 0.065274365 0.103456095
0.021882024 0.05813606 -0.18833333 -0.044660788 0.019397095 -0.027175667 -0.06591342 -0.011613539
0.040902734 -0.05667527 0.052257176 -0.17305472 0.08177566 -0.087885335 0.13218264 0.01889567
-0.026431998 0.023926944 0.011659431 0.028315004 0.07247829 -0.029676998 0.0065575163 -0.24667057
-0.17772165 -0.12073998 -0.15445939 0.13803762 -0.14335151 -0.18234645 0.09252715 0.04503517
0.10437275 -0.09727414 0.037071936 0.03008951 -0.0922563 0.0661421 -0.003525292 0.07924914
-0.032777485 -0.123706385 0.021324651 0.008718837 -0.029140567 -0.17065053 -0.13436787 -0.045950945
-0.0004446847 0.09084139 -0.04390602 -0.03478216 -0.1742023 0.14367776 -0.0014282911 0.06687718
0.013823246 0.04173135 -0.0032015915 0.040815372 -0.17529891 0.06413839 -0.018534703 -0.054171525
-0.061104923 -0.019361392 0.03266765 0.027096804 0.030047107 0.025715478 -0.18032624 -0.045573764
-0.01615582 0.020587686 -0.2603287 -0.18043889 -0.02037317 0.08984096 -0.03247205 0.0028868231
0.0033089411 -0.095102936 -0.05730362 0.0089972075 -0.072757885 0.021813668 -0.1258356 0.09293636
0.037799597 -0.16259888 0.07804894 0.047907546 -0.048008654 -0.0142367715 0.0734753 -0.03467864
-0.10690072 -0.11014972 0.06384594 -0.10247887 -0.12679143 0.105230846 0.032537434 -0.029369837
-0.012314776 -0.037719373 0.02677366 -0.02078734 -0.16521892 0.06660724 0.120249525 0.05660047
0.04718179 0.013787856 -0.12599696 -0.13040805 0.030494539 -0.114503644 -0.060098216 0.09767401
-0.092670485 -0.19455796 0.04912578 0.018259408 0.015134524 -0.019635288 0.037406556 0.1310737
0.06155099 0.09625295 -0.014521878 -0.18396956 -0.09470613 -0.24965014 0.051414195 0.043380488
0.10506002 -0.02436189 -0.07135582 -0.09782353 0.02009962 0.12143345 0.02372861 -0.1686575
0.11212606 0.050254576 -0.39332992 0.021708924 -0.1460256 -0.045747604 -0.0378601 -0.14193767
-0.11867141 -0.110714756 -0.08811595 0.060580038 0.055492487 -0.06459993 0.10996149 0.08216814
0.057671994 0.01952479 -0.18464021 0.044242315 0.09704546 -0.17378147 -0.096953556 -0.22775432
0.03316106 -0.008381086 -0.0057116244 -0.07326701 0.13005377 0.028359339 0.05096675 0.03700507
0.030735599 -0.036591493 -0.085651025 0.020046437 -0.07456982 -0.09749698 0.0815529 0.1504515
-0.111920066 0.0064647147 0.026139157 0.05756385 0.05689672 0.0930251 -0.038121317 0.013607632
0.009647334 0.027885048 -0.0058833724 0.06806166 0.030630324 -0.058179956 0.02342084 0.09817548
-0.047036134 -0.05947521 -0.24688023 0.0035171807 -0.06552811 0.06263545 0.065058805 -0.012092353
0.05521709 0.07296325 0.13052516 -0.006211357 -0.00871108 -0.1357648 0.07494929 -0.1880169
-0.03895997 -0.00092602515 -0.007863321 0.028136726 -0.2563104 -0.1429615 0.03138751 -0.015770731
-0.08164703 -0.08123046 0.034873582 -0.067480445 0.2176013 0.041460186 -0.16255069 -0.2514806
-0.11694974 -0.0067638475 -0.12848091 0.064816885 -0.06485348 -0.0350873 0.06639372 -0.09375877
-0.25640827 0.048302174 0.088777445 -0.18404204 -0.2568441 0.026481738 -0.06065844 -0.123976074
00000000: 5612 853d 0690 17bd 67dc 823d 5f18 c8bd
00000010: fea2 e93d 3e31 bcbd 91ae 853d cae0 d33d
00000020: ee41 b33c 1420 6e3d 74da 40be 3bee 36bd
00000030: a8e6 9e3c 819f debc 9dfd 86bd b746 3ebc
00000040: a089 273d 5424 68bd 9f0b 563d 4235 31be
00000050: ff79 a73d 3afd b3bd e35a 073e 18cb 9a3c
00000060: eb87 d8bc 7002 c43c 3307 3f3c def4 e73c
00000070: 7f6f 943d 2d1d f3bc 6fe0 d63b 3697 7cbe
00000080: aafc 35be 8646 f7bd 9a2a 1ebe bc59 0d3e
00000090: bdca 12be 07b9 3abe e07e bd3d cc76 383d
000000a0: 61c1 d53d aa37 c7bd bed8 173d 477e f63c
000000b0: dff0 bcbd 8275 873d 9608 67bb 604d a23d
000000c0: af41 06bd c659 fdbd 09b1 ae3c 74d9 0e3c
000000d0: 33b8 eebc 03bf 2ebe bb97 09be 0f37 3cbd
000000e0: 9224 e9b9 0d0b ba3d ccd6 33bd bd77 0ebd
000000f0: 1662 32be 4320 133e 7f35 bbba e7f6 883d
00000100: e57a 623c 7eee 2a3d cbd1 51bb 052e 273d
00000110: 8f81 33be fd5a 833d 17d6 97bc f6e2 5dbd
00000120: 2849 7abd c89b 9ebc 84ce 053d 1efa dd3c
00000130: 5a25 f63c 44a9 d23c 71a7 38be 8eab 3abd
00000140: 3659 84bc 82a7 a83c ce49 85be f9c4 38be
00000150: a2e5 a6bc 8afe b73d 6a01 05bd db30 3d3b
00000160: d2da 583b 54c5 c2bd 33b7 6abd 0669 133c
00000170: 1602 95bd 94b2 b23c 0cdb 00be 6b55 be3d
00000180: c0d3 1a3d 5280 26be 1fd8 9f3d b43a 443d
00000190: b9a4 44bd 5941 69bc 387a 963d 310b 0ebd
000001a0: c4ee dabd 2d96 e1bd a9c1 823d 71e0 d1bd
000001b0: 9dd5 01be 4583 d73d f945 053d 0399 f0bc
000001c0: eac3 49bc a17f 1abd 6f54 db3c 364a aabc
000001d0: 262f 29be 6069 883d 6245 f63d e5d5 673d
000001e0: b141 413d 76e6 613c 5905 01be b089 05be
000001f0: afcf f93c e380 eabd 8c29 76bd 5009 c83d
00000200: 06ca bdbd 343a 47be 1d38 493d c194 953c
00000210: cbf6 773c 2fda a0bc 9e37 193d 2f38 063e
00000220: e41c 7c3d 4420 c53d 2ced 6dbc 8462 3cbe
00000230: 4af5 c1bd 49a4 7fbe b197 523d bdaf 313d
00000240: b529 d73d 9692 c7bc 0023 92bd b457 c8bd
00000250: f5a7 a43c 1ab2 f83d 8062 c23c 8db4 2cbe
00000260: 59a2 e53d bed7 4d3d 8a62 c9be ead6 b13c
00000270: bc87 15be d761 3bbd 3113 1bbd 1c58 11be
00000280: ff09 f3bd 6bbe e2bd 2376 b4bd c622 783d
00000290: 174c 633d f84c 84bd 7d33 e13d c547 a83d
000002a0: 7839 6c3d 74f2 9f3c 5312 3dbe 6e37 353d
000002b0: c5bf c63d c5f3 31be 968f c6bd 6e38 69be
000002c0: e4d3 073d d350 09bc 9428 bbbb 040d 96bd
000002d0: d12c 053e d851 e83c 83c2 503d a192 173d
000002e0: 39c9 fb3c f6e0 15bd ce69 afbd 6d38 a43c
000002f0: 10b8 98bd 7fac c7bd 3505 a73d f50f 1a3e
00000300: 5936 e5bd f5d5 d33b c921 d63c 12c8 6b3d
00000310: 890c 693d f283 be3d 1925 1cbd 8cf2 5e3c
00000320: da0f 1e3c 2f6f e43c 4ec9 c0bb e963 8b3d
00000330: 72ec fa3c 1b4e 6ebd 10dd bf3c 3a10 c93d
00000340: f6a8 40bd 479c 73bd 2cce 7cbe 8080 663b
00000350: 9a33 86bd 0447 803d 8d3d 853d 011f 46bc
00000360: 512b 623d c26d 953d 63a8 053e a488 cbbb
00000370: ebb8 0ebc ed05 0bbe 037f 993d 8187 40be
00000380: 7d94 1fbd 7fc0 72ba 29d5 00bc fe7e e63c
00000390: 1e3b 83be 8064 12be 3190 003d 9f31 81bc
000003a0: 8f36 a7bd 285c a6bd 9ad7 0e3d 3033 8abd
000003b0: e0d2 5e3e 28d2 293d b073 26be 11c2 80be
000003c0: 5883 efbd 44a3 ddbb 8090 03be b7be 843d
000003d0: e7d1 84bd b3b7 0fbd 6ef9 873d 9904 c0bd
000003e0: f247 83be 80d8 453d f3d0 b53d 8475 3cbe
000003f0: 1281 83be 3bf0 d83c fc74 78bd 2be7 fdbd

model.4.bias f4 [128]
0.039325874 -0.06056329 0.23473723 -0.009414732 -0.16011217 -0.11452812 0.05207104 0.20231879
-0.0740901 0.3667019 0.22707303 0.11204077 0.02817135 0.2494251 -0.0452762 -0.2118132
-0.18197884 -0.09855833 0.15998414 -0.03593105 -0.0045073708 -0.016605169 -0.029493336 -0.21609539
-0.06459303 0.26698044 -0.10334576 -0.031584658 -0.093890525 -0.081078745 -0.049697418 0.11966647
-0.086026646 -0.038313083 0.142045 -0.00044349907 -0.08231243 0.029479163 0.013832056 0.18387699
0.029371217 -0.08733187 -0.12271955 -0.12817152 -0.10562229 0.074044876 0.0068493993 0.20541383
-0.03786811 -0.027903097 0.036759295 -0.05508546 0.034691438 -0.022056784 0.1042541 0.04936931
0.049260408 -0.002263977 0.18635121 -0.14327696 0.027403643 -0.06218403 -0.08093668 0.10791643
0.06659235 -0.1110453 0.22355361 -0.042113163 -0.09487106 0.0074058906 -0.09882537 -0.08744435
0.09443739 0.055728704 -0.14315283 0.2021069 -0.034196712 -0.17884937 0.13878162 0.18118773
0.287321 0.010811518 -0.09294666 -0.09507869 -0.040194068 -0.052342214 0.012803944 0.08625728
-0.11458368 -0.054782033 0.12411919 -0.16115887 -0.19024073 -0.12999944 0.05057633 0.19607337
0.05180973 -0.021004483 0.07340729 -0.008459895 -0.061995555 -0.06437723 -0.022583092 0.14389682
-0.099101864 -0.096194506 0.0837987 -0.10011497 0.04682941 0.13828789 0.15897952 0.27427784
0.09087592 0.008425292 -0.13809247 -0.079445094 -0.18351877 0.03004644 0.12567966 -0.07840973
-0.011390875 -0.04110057 0.1341934 -0.10281337 0.16108714 0.13955268 -0.085678264 0.12620685
00000000: 2b14 213d 3611 78bd f55e 703e 4040 1abc
00000010: 72f4 23be b88d eabd 7148 553d a82c 4f3e
00000020: 8dbc 97bd 5ac0 bb3e d585 683e a275 e53d
00000030: 9ac7 e63c 4b69 7f3e 8973 39bd 8fe5 58be
00000040: a958 3abe f3d8 c9bd e2d2 233e 702c 13bd
00000050: 91b2 93bb 9007 88bc 029c f1bc 1c48 5dbe
00000060: 5a49 84bd a9b1 883e f1a6 d3bd ea5e 01bd
00000070: ad49 c0bd 9d0c a6bd 858f 4bbd b213 f53d
00000080: bd2e b0bd 2eee 1cbd 3f74 113e 7085 e8b9
00000090: 6b93 a8bd 497e f13c d99f 623c 404a 3c3e
000000a0: e89b f03c 0ddb b2bd 6354 fbbd 653f 03be
000000b0: 8050 d8bd d7a4 973d ed70 e03b 0158 523e
000000c0: 971b 1bbd 0995 e4bc ea90 163d 4ba1 61bd
000000d0: 9c18 0e3d 6eb0 b4bc 2c83 d53d 7937 4a3d
000000e0: 48c5 493d 3b5f 14bb dad2 3e3e 32b7 12be
000000f0: 9b7d e03c aeb4 7ebd 21c2 a5bd 4a03 dd3d
00000100: 9261 883d b86b e3bd 3deb 643e da7e 2cbd
00000110: c24b c2bd 1dad f23b f564 cabd 0616 b3bd
00000120: 6468 c13d c843 643d a896 12be 1cf5 4e3e
00000130: da11 0cbd 4a24 37be c51c 0e3e 4789 393e
00000140: bd1b 933e cb22 313c d25a bebd 9eb8 c2bd
00000150: 89a2 24bd ca64 56bd a2c7 513c a8a7 b03d
00000160: d9aa eabd 2063 60bd 3432 fe3d d506 25be
00000170: 77ce 42be 931e 05be 2029 4f3d 75c7 483e
00000180: 7036 543d 9811 acbc 9056 963d 5f9b 0abc
00000190: 0def 7dbd 36d8 83bd 2d00 b9bc b059 133e
000001a0: ebf5 cabd a001 c5bd a79e ab3d 1409 cdbd
000001b0: 32d0 3f3d 579b 0d3e 87cb 223e 256e 8c3e
000001c0: 281d ba3d 3c0a 0a3c 1d68 0dbe 1cb4 a2bd
000001d0: 58ec 3bbe f423 f63c 2bb2 003e 4895 a0bd
000001e0: cba0 3abc 1259 28bd ff69 093e d18f d2bd
000001f0: 07f4 243e e6e6 0e3e 1678 afbd 5e3c 013e

model.7.weight f4 [10, 128]
0.12827611 -0.13612343 -0.033968948 -0.08377803 -0.14324625 0.09545864 -0.072818205 0.07164191
0.06546094 -0.030499145 0.07543978 -0.0690082 0.03544316 0.09940276 0.08297198 -0.18288547
0.109828435 0.06818381 0.08947896 0.11089547 -0.18394594 -0.12404792 0.12340601 -0.25325754
-0.07936802 0.084434316 0.073674284 -0.2115815 0.01577898 0.08395161 0.058300223 0.07513817
0.06334399 -0.15792125 -0.0029774911 -0.18381919 0.060135733 0.07620407 0.11232269 -0.038012974
-0.021476898 0.12740177 0.07057422 -0.10552352 0.106105134 -0.078891754 -0.06675845 0.020124665
-0.2559453 -0.0434679 0.08692541 -0.017205646 0.12245239 -0.04326927 -0.22116901 -0.14352345
-0.09709282 -0.10624932 -0.07517173 -0.050935164 0.108467825 -0.036482293 -0.15996496 -0.32283217
0.06009215 0.018470967 -0.06544267 0.07567211 -0.19556613 -0.13359359 -0.17680664 0.13015427
0.12325466 -0.026921656 0.10926059 0.10364874 -0.16120969 -0.021547768 -0.11636482 -0.08349795
0.034300018 -0.04753169 0.12701336 -0.13137256 -0.19617695 -0.014721147 -0.0889458 -0.04729829
-0.040506154 -0.07068124 -0.10721263 -0.09029438 -0.11959341 0.045136783 -0.22074892 0.09873586
-0.17161365 -0.11913825 -0.06334323 -0.11491581 -0.026210051 -0.093979485 0.101523034 -0.1532877
0.12544943 0.05172462 0.035704248 0.039889738 -0.02787279 -0.087568626 -0.06809521 -0.19674253
-0.11460557 0.08209605 -0.14689842 -0.05359307 -0.13408318 0.046906516 -0.038968187 0.006628057
0.0040185447 -0.01131075 -0.13856104 -0.1229039 0.046855945 -0.24582183 0.04624629 -0.009599168
-0.15386099 -0.16842051 -0.15578714 -0.13601148 0.089446835 -0.112227984 0.05400309 -0.15664051
-0.20159703 -0.22768961 -0.15391313 -0.10485267 -0.14318614 -0.18435225 -0.10366158 0.099892154
-0.16426328 -0.20576862 -0.024025371 0.050531358 -0.13053615 -0.20339839 -0.07860368 0.120051324
0.099447906 -0.27864632 0.0841541 0.088948116 0.024931362 -0.14809513 -0.23632859 0.0653052
-0.1123616 -0.11404023 -0.2042737 0.063710235 -0.053931985 0.047849864 -0.05004461 -0.0036553491
0.10789277 -0.10651468 -0.057742313 0.096994765 -0.13795279 -0.10491047 -0.07392177 0.022102034
0.10679174 -0.06204378 0.042424683 -0.15523675 0.12076295 0.095116116 -0.15342188 0.01540354
0.0022428625 0.15503891 -0.08027774 0.007517101 -0.14224444 -0.15325974 0.124152705 0.03570523
-0.12029141 0.064263605 -0.1469174 -0.2791985 0.104742765 0.01443894 0.18402131 0.12180791
0.14820217 0.04399059 0.053108566 -0.07398213 0.020602146 -0.07844843 -0.1826109 -0.16901347
0.104146235 -0.06067522 0.020565549 -0.017871905 0.08937569 0.05753686 -0.18897514 0.06654668
0.11002362 0.01613753 0.06502625 0.019894496 -0.09019529 -0.044564635 -0.10684041 0.14170906
-0.028148795 0.10904811 -0.13221888 -0.060025446 -0.13175651 0.10937497 -0.063476704 0.09244512
-0.16243725 0.024848858 -0.17472315 -0.11989299 -0.01297048 0.042628933 0.007664493 0.006422837
0.0509733 -0.061103255 0.05956721 0.09793707 0.076183625 0.09290037 -0.13744257 -0.17363174
-0.021201959 -0.1835734 0.049031742 0.04455832 -0.17365703 -0.014305217 -0.055402268 -0.1598018
00000000: d05a 033e f163 0bbe 0623 0bbd d193 abbd
00000010: 25af 12be d27f c33d b621 95bd feb8 923d
00000020: 6310 863d 58d9 f9bc 2c80 9a3d 2c54 8dbd
00000030: d92c 113d ad93 cb3d 37ed a93d 5446 3bbe
00000040: bbed e03d f4a3 8b3d bf40 b73d 2a1d e33d
00000050: 535c 3cbe d60c febd 4abc fc3d f9aa 81be
00000060: b38b a2bd e6eb ac3d 8be2 963d d2a8 58be
00000070: eb42 813c d2ee ab3d 37cc 6e3d 0ae2 993d
00000080: 7eba 813d 1cb6 21be 0322 43bb 193b 3cbe
00000090: e350 763d e110 9c3d 7009 e63d 7eb3 1bbd
000000a0: 52f0 afbc 9c75 023e 3789 903d b71c d8bd
000000b0: a64d d93d 0092 a1bd a7b8 88bd 7bdc a43c
000000c0: 430b 83be 660b 32bd f305 b23d dbf2 8cbc
000000d0: 52c8 fa3d 1e3b 31bd 217a 62be d0f7 12be
000000e0: 9ad8 c6bd 3e99 d9bd a3f3 99bd 64a1 50bd
000000f0: 6124 de3d 756e 15bd dbcd 23be 424a a5be
00000100: 3023 763d 6d50 973c ce06 86bd fbf9 9a3d
00000110: 7d42 48be c2cc 08be cd0c 35be 2947 053e
00000120: f06c fc3d ce8a dcbc 04c4 df3d ca45 d43d
00000130: 2714 25be f284 b0bc ae50 eebd f900 abbd
00000140: 2d7e 0c3d 97b0 42bd ca0f 023e 8786 06be
00000150: 9ce2 48be f730 71bc 3729 b6bd dabb 41bd
00000160: c8e9 25bd 53c1 90bd 4c92 dbbd 43ec b8bd
00000170: 64ed f4bd 59e1 383d 010c 62be 0736 ca3d
00000180: 7dbb 2fbe c1fe f3bd 18ba 81bd fb58 ebbd
00000190: 76b6 d6bc 5178 c0bd 4feb cf3d 73f7 1cbe
000001a0: d175 003e 32dd 533d 9e3e 123d 6c63 233d
000001b0: 7a55 e4bc 2e57 b3bd 8075 8bbd e076 49be
000001c0: 53b6 eabd f921 a83d 8a6c 16be 6884 5bbd
000001d0: 1a4d 09be 0c21 403d 1b9d 1fbd 2c30 d93b
000001e0: ffad 833b b950 39bc f2e2 0dbe 0ab5 fbbd
000001f0: 05ec 3f3d b8b8 7bbe c06c 3d3d d445 1dbc
00000200: bc8d 1dbe 6d76 2cbe aa86 1fbe 9846 0bbe
00000210: e72f b73d c9d7 e5bd 5832 5d3d 5f66 20be
00000220: 746f 4ebe 7727 69be 679b 1dbe ffbc d6bd
00000230: 639f 12be d6c6 3cbe 864c d4bd 4294 cc3d
00000240: a234 28be 02b5 52be dbd0 c4bc f8f9 4e3d
00000250: 45ab 05be ab47 50be f7fa a0bd 78dd f53d
00000260: 58ab cb3d bbaa 8ebe fc58 ac3d 6e2a b63d
00000270: db3c cc3c 40a6 17be 1f00 72be bcbe 853d
00000280: d71d e6bd ed8d e9bd 202d 51be 837a 823d
00000290: c9e7 5cbd 38fe 433d 94fb 4cbd 958e 6fbb
000002a0: e2f6 dc3d 5e24 dabd 3483 6cbd 31a5 c63d
000002b0: 7f43 0dbe 4ddb d6bd 4c64 97bd 530f b53c
000002c0: a1b5 da3d 9e21 7ebd 81c5 2d3d 62f6 1ebe
000002d0: 9152 f73d 3dcc c23d a01a 1dbe 215f 7c3c
000002e0: fdfc 123b 85c2 1e3e a868 a4bd 0352 f63b
000002f0: 87a8 11be 1ff0 1cbe c643 fe3d a63f 123d
00000300: 585b f6bd a39c 833d 8471 16be 1bf3 8ebe
00000310: 6083 d63d 4e91 6c3c 1570 3c3e 6d76 f93d
00000320: 4fc2 173e 7a2f 343d 5e88 593d f183 97bd
00000330: d5c5 a83c 92a9 a0bd 5afe 3abe de11 2dbe
00000340: 9f4a d53d 9486 78bd 1579 a83c 1a68 92bc
00000350: 9a0a b73d c5ab 6b3d b382 41be a049 883d
00000360: 1054 e13d da32 843c 7c2c 853d c8f9 a23c
00000370: 4fb8 b8bd 6889 36bd 25cf dabd 2e1c 113e
00000380: 4d98 e6bc 9e54 df3d 6364 07be 3edd 75bd
00000390: 2eeb 06be fcff df3d 1300 82bd de53 bd3d
000003a0: f355 26be d58f cb3c a0ea 32be 758a f5bd
000003b0: 2382 54bc ad9b 2e3d 6d26 fb3b a976 d23b
000003c0: 61c9 503d 6847 7abd bffc 733d 3b93 c83d
000003d0: 2906 9c3d 8d42 be3d bfbd 0cbe 85cc 31be
000003e0: bbaf adbc aafa 3bbe 82d5 483d c982 363d
000003f0: 26d3 31be 6e60 6abc 7ded 62bd 15a3 23be

model.7.bias f4 [10]
-0.08265693 -0.0828248 -0.03683331 -0.038591173 0.045191992 -0.1544092 0.0046789334 -0.10089143
0.42922425 0.11801812
00000000: 0948 a9bd 0ca0 a9bd 86de 16bd c711 1ebd
00000010: 3d1b 393d 721d 1ebe bd51 993b 2ba0 cebd
00000020: 48c3 db3e 7cb3 f13d
